experiments/generator_model/sub_net.pt (torch, 91073 bytes, 12 tensors)

layers.0.weight f4 [64, 16]
0	0xbe9d8c61	-0.30771163
1	0xbec7f170	-0.3905139
2	0x3ea42f05	0.32067123
3	0x3de1c443	0.11023762
4	0xbdf7b8d3	-0.12095799
5	0xbdbfd5e8	-0.09366971
6	0xbe93bab2	-0.28853375
7	0xbf2906f8	-0.6602626
8	0x3eb10c99	0.34579924
9	0xbe0d5300	-0.13801193
10	0xbd892fa1	-0.066985376
11	0xbd95e544	-0.073191196
12	0x3e4e817e	0.20166585
13	0xbd4f6c1f	-0.05064022
14	0xbeb92cc4	-0.36166966
15	0x3e414c56	0.18876776
16	0x3d70004b	0.05859403
17	0x3e211df1	0.15734078
18	0x3e228984	0.1587277
19	0xbe82c53c	-0.25541103
20	0x3cc9fc91	0.024656566
21	0xbe9bfd59	-0.30466726
22	0x3e8012d7	0.25014374
23	0x3cf97ce6	0.030455064
24	0x3e2afc27	0.16697751
25	0xbe8ed7f7	-0.27899143
26	0x3c46c58c	0.01213206
27	0xbdb330a8	-0.08749515
28	0xbe5960e4	-0.21228367
29	0x3dca97cb	0.098922335
30	0xbe95bb3d	-0.29244414
31	0x3d92dbec	0.07170853
32	0x3e5f6602	0.21816257
33	0x3e347411	0.17622401
34	0xbf4d2602	-0.8013612
35	0xbd61c5e4	-0.055120364
36	0x3e26adf1	0.16277291
37	0xbeabe098	-0.3356979
38	0x3db2f39b	0.0873787
39	0xbf2fe511	-0.687089
40	0x3d8af2aa	0.06784566
41	0x3e76ac54	0.24089175
42	0x3bfcc81e	0.0077142855
43	0xbec9684e	-0.3933739
44	0xbcf09a2f	-0.029370395
45	0x3cb508a5	0.022098849
46	0x3e645ea8	0.22301733
47	0xbe459cc8	-0.19298089
48	0x3df0096c	0.11720547
49	0xbe753845	-0.23947246
50	0xbcfda240	-0.030961156
51	0x3e64ef5f	0.22356938
52	0x3c00cc83	0.007861259
53	0xbccd109a	-0.02503233
54	0x3e7ed736	0.24886784
55	0x3ddca38a	0.1077338
56	0xbec17705	-0.37786117
57	0xbddbcde2	-0.107326284
58	0x3eb13f99	0.34618834
59	0xbefc8a90	-0.49324465
60	0x3dad5f1e	0.08465408
61	0x3e86fbd8	0.26364017
62	0x3ed40a84	0.41414273
63	0xbe0439f9	-0.1291274
64	0xbd6d246a	-0.057896055
65	0x3d500240	0.050783396
66	0xbeafcbb1	-0.34335092
67	0x3c617e29	0.013762989
68	0x3e36e7d8	0.17861879
69	0xbed08f99	-0.40734556
70	0xbe6f9b65	-0.23399122
71	0xbe2edf86	-0.17077455
72	0x3d5c234e	0.053744607
73	0xbe0e4dbe	-0.13896844
74	0x3e9f2501	0.3108292
75	0x3d8f1f42	0.06988384
76	0xbebbc843	-0.36676225
77	0x3de7874a	0.11305101
78	0xbebc6b3b	-0.3680056
79	0x3ed17b9e	0.40914625
80	0xbdad7df1	-0.08471287
81	0x3df24685	0.11829857
82	0xbf102ca4	-0.56318116
83	0xbe810872	-0.25201756
84	0xbef79e5e	-0.48363012
85	0xbf0276a4	-0.5096228
86	0xbea83c76	-0.32858628
87	0xbe690b48	-0.2275821
88	0xbdbdd759	-0.0926959
89	0x3deb76e3	0.11497285
90	0x3a57a674	0.00082264026
91	0x3e388cd6	0.18022475
92	0x3e9c4869	0.30523995
93	0xbe6f3144	-0.23358637
94	0x3e49883f	0.1968088
95	0xbdccc015	-0.09997574
96	0xbf288c99	-0.65839535
97	0xbf0daffe	-0.5534667
98	0xbe949642	-0.29020888
99	0xbecedf00	-0.4040451
100	0x3e882188	0.26588082
101	0xbeec32f8	-0.46132636
102	0x3d87efe9	0.06637556
103	0x3d6f7f54	0.05847104
104	0xbe626b47	-0.22111236
105	0xbe6526ad	-0.22378035
106	0xbdf2e033	-0.11859169
107	0xbd5d255b	-0.053990703
108	0xbea18874	-0.31549418
109	0xbe95f4f9	-0.29288462
110	0xbe5bc40b	-0.21461503
111	0x3e958b56	0.29207867
112	0xbf1a4009	-0.6025396
113	0x3ea6ee85	0.3260385
114	0xbedf5b05	-0.4362413
115	0xbd936a7b	-0.07198044
116	0xbebb964f	-0.36638114
117	0xbdba162a	-0.09086259
118	0xbdfa311d	-0.12216399
119	0xbe8b910a	-0.27259094
120	0xbda0dd98	-0.07854766
121	0xbdb77a40	-0.08958864
122	0xbe12f169	-0.14349903
123	0xbcfa189b	-0.03052931
124	0xbebd9222	-0.37025553
125	0x3e7aa207	0.24475871
126	0x3e9d6968	0.3074448
127	0x3e4a4fa8	0.19756949
128	0xbda34787	-0.07972627
129	0x3e146481	0.14491464
130	0x3e2ae725	0.16689737
131	0x3e26464a	0.1623775
132	0x3e31ac76	0.17350945
133	0x3e6849d1	0.22684409
134	0x3ecb610c	0.39722478
135	0xbe8e9417	-0.2784736
136	0xbe85a350	-0.2610116
137	0x3dc70240	0.09717226
138	0xbea272cd	-0.3172821
139	0xbf06efb2	-0.52709496
140	0x3df05c9b	0.11736413
141	0x3d537461	0.05162466
142	0xbe5211fd	-0.20514674
143	0xbd510568	-0.051030546
144	0x3c409181	0.011753441
145	0xbd05ab9a	-0.032634355
146	0xbf0f2bd6	-0.55926263
147	0x3e49b517	0.19697987
148	0xbdd0040c	-0.10157022
149	0xbeb091b8	-0.34486175
150	0x3e862f40	0.26207924
151	0xbece70d0	-0.40320444
152	0x3ea62e8d	0.3245739
153	0x3cf67fd1	0.030090244
154	0x3dcf93b3	0.10135593
155	0x3e4c0171	0.19922425
156	0xbe95c885	-0.29254547
157	0xbdd0b085	-0.101899184
158	0xbec18e9b	-0.37804112
159	0xbd3bfecf	-0.0458973
160	0xbd909cc5	-0.070611514
161	0x3e86c47e	0.26321787
162	0xbdc3650d	-0.09540758
163	0xbe2668b0	-0.16250873
164	0xbeb215c3	-0.34782228
165	0x3e1e2e68	0.1544739
166	0xbeeb021c	-0.45900047
167	0xbe4c1338	-0.19929206
168	0xbf130b07	-0.574387
169	0x3e2afaff	0.1669731
170	0xbdd70c1b	-0.10500356
171	0x3e3b3037	0.18280111
172	0x3eb27e2a	0.3486188
173	0xbf206a94	-0.62662625
174	0xbda5c25b	-0.08093711
175	0x3d0c3fb9	0.03424046
176	0xbe1eaeec	-0.15496415
177	0xbe33cbb9	-0.17558183
178	0x3d1aac91	0.03776223
179	0xbd52c579	-0.051457856
180	0x3e4b3e65	0.1984802
181	0xbe2ca786	-0.1686078
182	0xbe57b827	-0.21066342
183	0xbe9f0835	-0.3106095
184	0xbf0d8c03	-0.55291766
185	0xbeb09d92	-0.34495217
186	0x3d0e9f2b	0.034819763
187	0x3e89a9ca	0.2688735
188	0x3e07acb0	0.13249469
189	0x3cd892f6	0.026437264
190	0x3e8c637f	0.2741966
191	0x3eea924b	0.45814738
192	0x3d804901	0.062639244
193	0x3e59c38a	0.21265998
194	0x3e79fda8	0.24413168
195	0xbddad0c5	-0.10684351
196	0x3e40dcf0	0.18834281
197	0xbe0a0043	-0.13476662
198	0xbe438be2	-0.1909633
199	0xbdb77b6f	-0.0895909
200	0xbe5fc736	-0.21853337
201	0x3f0d4a65	0.5519164
202	0xbec70a70	-0.3887515
203	0xbe5abe9a	-0.21361771
204	0xbf0812f2	-0.5315391
205	0xbdffe5f3	-0.12495031
206	0xbe992d77	-0.299175
207	0xbd9745c0	-0.07386351
208	0x3cbc8b10	0.023015529
209	0x3c866eaf	0.0164102
210	0x3e4741de	0.1945872
211	0xbce1a770	-0.02754566
212	0x3e73a765	0.23794325
213	0x3c9fea4e	0.019520905
214	0xbeaf9fca	-0.34301597
215	0xbe5f26b5	-0.2179211
216	0x3e9047b2	0.281797
217	0x3e06252a	0.13100114
218	0xbef843ed	-0.48489323
219	0xbe5f2c3d	-0.2179422
220	0xbea32730	-0.31865835
221	0x3e85a57f	0.26102826
222	0x3e334dd7	0.17510162
223	0x3e06cf18	0.13164937
224	0x3ddbd1a8	0.10733348
225	0xbdfa0e8a	-0.12209804
226	0xbec1b8db	-0.37836346
227	0xbe782252	-0.24231842
228	0xbe9684b4	-0.2939812
229	0xbe6c2962	-0.23062661
230	0x3e1b6595	0.15175469
231	0xbcfc7011	-0.030815156
232	0x3dec2b21	0.11531664
233	0x3ce254ef	0.02762839
234	0xbe69f18e	-0.22846052
235	0xbeaac526	-0.33353537
236	0x3e4d8f11	0.20074107
237	0xbf158242	-0.5840188
238	0x3e0c9f31	0.13732602
239	0xbe145479	-0.14485349
240	0xbebf6f2e	-0.3738951
241	0x3e1c5e70	0.152704
242	0x3dc1c7a1	0.09461904
243	0xbea1799f	-0.31538102
244	0x3e5174a8	0.20454657
245	0x3de35291	0.11099733
246	0x3da26bbf	0.07930707
247	0x3e036233	0.12830429
248	0xbe03d9a6	-0.12875995
249	0xbf1a26a1	-0.60215193
250	0x3e8ee7fb	0.27911362
251	0xbe17d8cf	-0.148288
252	0xbe6c0732	-0.2304962
253	0xbd27640f	-0.040866908
254	0xbd9ca0e3	-0.07647874
255	0x3e22a438	0.15882957

layers.0.bias f4 [64]
0	0x3d3f8f12	0.0467673
1	0x3da6686e	0.08125387
2	0xbd4f5333	-0.050616454
3	0xbebea3d4	-0.37234366
4	0x3de7e5fc	0.11323163
5	0x3eb9f4a7	0.36319467
6	0x3e8dfb27	0.27730677
7	0xbe1d4d3b	-0.15361492
8	0xbe68f424	-0.22749382
9	0x3e1cf9d4	0.15329677
10	0xbe1caba0	-0.15299845
11	0x3d40005d	0.046875346
12	0x3dc641de	0.09680532
13	0xbd4069be	-0.046975844
14	0x3dcb655b	0.099314414
15	0x3e0c0f59	0.1367773
16	0x3e8b1b68	0.27169347
17	0x3deace00	0.11465073
18	0x3ce5cf43	0.028052932
19	0xbe637dbb	-0.22215931
20	0xbe38bbae	-0.18040344
21	0xbd41c80a	-0.047309913
22	0xbcc00e5c	-0.023444347
23	0x3d6783f2	0.056522317
24	0xbdfe46c2	-0.1241584
25	0xbeaed35d	-0.34145632
26	0x3dac38da	0.08409281
27	0x3e7ef72f	0.2489898
28	0xbdf3de60	-0.11907649
29	0xbed42313	-0.4143301
30	0xbe07dd9e	-0.13268134
31	0xbe7b9b31	-0.2457092
32	0xbe718a70	-0.23587966
33	0xbdb0ec86	-0.08638863
34	0xbc7b42cf	-0.015335753
35	0xbdfa952b	-0.12235483
36	0xbe69e483	-0.22841077
37	0xbf022faf	-0.5085401
38	0xbe29841e	-0.16554305
39	0x3cc15960	0.023602188
40	0xbe8e85ef	-0.27836558
41	0x3c86d542	0.016459111
42	0xbe4413b0	-0.19148135
43	0xbe7584a7	-0.23976384
44	0xbdf74f14	-0.1207563
45	0xbca89419	-0.020578431
46	0x3c202283	0.009773853
47	0xbeadcb4b	-0.33944163
48	0x3e18e815	0.14932282
49	0x3b49cdad	0.0030792758
50	0xbe5cef10	-0.2157557
51	0x3d09e1f4	0.03366275
52	0xbec5a205	-0.38600174
53	0xbd8f561a	-0.069988444
54	0xbe289063	-0.16461329
55	0xbe5d6281	-0.21619608
56	0xbdbf06f0	-0.09327495
57	0x3e336020	0.17517138
58	0xbe936c14	-0.28793395
59	0xbdb0bafc	-0.086294144
60	0xbceb5b21	-0.028729977
61	0xbe05f647	-0.13082229
62	0x3e0952ac	0.13410443
63	0x3e66e40c	0.2254793

layers.2.weight f4 [64, 64]
0	0xbec15063	-0.37756643
1	0xbeb8662c	-0.3601545
2	0x3e83bb0c	0.25728643
3	0xbe485c51	-0.19566466
4	0x3d5ff26b	0.054674547
5	0xbd83b23d	-0.06430481
6	0xbe8abcd8	-0.270972
7	0x3ec8be49	0.39207676
8	0xbe680981	-0.22659875
9	0x3e905576	0.28190202
10	0xbea0b2d2	-0.3138643
11	0x3c7853b1	0.015156672
12	0x3de4d883	0.11174109
13	0xbdf485ea	-0.119396046
14	0x3da63995	0.08116452
15	0x3be456f5	0.006968374
16	0xbe2fc816	-0.1716617
17	0xbe246e17	-0.16057621
18	0x3e02fc08	0.12791455
19	0xbd845838	-0.06462139
20	0x3e6f4629	0.23366608
21	0xbd8d1678	-0.06889051
22	0xbe17ecbd	-0.14836402
23	0x3bbdcedf	0.005792483
24	0x3c0cc1ad	0.008591098
25	0xbed7c5f7	-0.42143223
26	0xbf1bb37c	-0.60820746
27	0xbd04d36e	-0.032428198
28	0xbf18f8a7	-0.59754413
29	0xbe540780	-0.20705986
30	0x3f001934	0.50038457
31	0xbd9e68b3	-0.077348135
32	0x3ede5a50	0.43428278
33	0x3dcea8f7	0.10090821
34	0x3da25024	0.07925442
35	0xbd76b6ee	-0.06023305
36	0x3e43e382	0.19129756
37	0x3eee5752	0.46550995
38	0xbd893b62	-0.067007795
39	0xbef07881	-0.46966937
40	0x3ea48419	0.32132033
41	0xbec52f78	-0.38512778
42	0xbeac0b0e	-0.33602184
43	0x3ebf5f3b	0.37377343
44	0xbd716769	-0.05893651
45	0xbdf13607	-0.11777883
46	0xbf0d1182	-0.5510484
47	0x3de0914f	0.109652154
48	0xbdae956e	-0.08524595
49	0x3e2bbb40	0.16770649
50	0x3e04e294	0.12977058
51	0xbe71a22d	-0.23597021
52	0xbeae1ad3	-0.3400484
53	0x3e1da3cc	0.15394515
54	0x3e3b1977	0.18271433
55	0xbdd13e29	-0.10216934
56	0xbeae60b1	-0.34058145
57	0x3e623694	0.22091132
58	0x3da22030	0.079162955
59	0x3e92857d	0.28617468
60	0xbe31ae04	-0.17351538
61	0x3e3dea28	0.18546355
62	0xbdd65133	-0.10464706
63	0xbdc2f7b2	-0.095199004
64	0x3d209f46	0.039214395
65	0x3de88b49	0.113546915
66	0x3d816e9f	0.063199274
67	0xbf064419	-0.5244766
68	0xbdbb4749	-0.09144456
69	0x3d8164c7	0.0631805
70	0x3e797fc3	0.24365143
71	0xbd4b79bc	-0.04967664
72	0xbe178b55	-0.14799245
73	0xbe7e0ae7	-0.24808846
74	0x3c521175	0.012821545
75	0xbcb2f071	-0.021843167
76	0x3e0a890f	0.13528846
77	0xbe7e28d9	-0.2482027
78	0xbea48dd9	-0.3213947
79	0xbde07595	-0.10959927
80	0x3e7a88a3	0.24466185
81	0xbd9f4627	-0.077770524
82	0xbdc02266	-0.09381561
83	0xbe8da9dd	-0.27668658
84	0x3e342642	0.17592719
85	0xbd099a73	-0.03359456
86	0x3d892b93	0.06697764
87	0xbd45a154	-0.048249558
88	0xbdf0526a	-0.11734469
89	0xbf265938	-0.64979887
90	0x3e45bc61	0.19310142
91	0xbf8363e7	-1.0264863
92	0xbea905c3	-0.33012208
93	0x3eb72553	0.35770664
94	0x3e7c0292	0.24610355
95	0xbe964968	-0.2935288
96	0x3d296bf3	0.041362714
97	0x3cfc79a2	0.030819718
98	0xbe77f3ca	-0.24214092
99	0x3d1f8201	0.03894234
100	0xbeb3c7cc	-0.3511337
101	0xbcf4a7d5	-0.029865185
102	0xbe15fce8	-0.14647257
103	0x3ba945ba	0.0051657828
104	0x3d2faec6	0.042891286
105	0xbe238215	-0.15967591
106	0x3bd0a17a	0.0063669058
107	0xbea9e030	-0.33178854
108	0x3e7525c9	0.23940195
109	0x3ee6adc8	0.4505446
110	0xbe438f6b	-0.19097678
111	0x3dcc7910	0.09984028
112	0x3cd54a92	0.026036534
113	0x3e148dc4	0.14507204
114	0x3e9f388f	0.31097838
115	0xbf051786	-0.5198902
116	0x3e837e9e	0.2568254
117	0xbe4092ec	-0.18806046
118	0xbd0f8c74	-0.035046056
119	0xbd2aba14	-0.041681364
120	0xbf0c70bc	-0.5485952
121	0xbf481eca	-0.7817198
122	0x3b116c24	0.00221897
123	0x3e61392b	0.21994464
124	0xbe772769	-0.24136128
125	0x3d1d361e	0.03838169
126	0xbef9dd6e	-0.4880175
127	0xbf38598e	-0.7201165
128	0x3dfc6cf3	0.12325468
129	0xbcf2752b	-0.029596886
130	0xbebc22c4	-0.36745274
131	0x3e7ee37b	0.24891464
132	0x3c9f6526	0.019457411
133	0xbcfb5433	-0.030679798
134	0xbedd0305	-0.43166366
135	0xbe480aa3	-0.19535308
136	0xbeb1a775	-0.34698072
137	0xbd34600f	-0.04403692
138	0xbefd5730	-0.4948058
139	0x3e4aa044	0.19787699
140	0xbdc0bcce	-0.09411012
141	0xbf1dad35	-0.6159242
142	0x3d16f194	0.03685148
143	0xb9a03c44	-0.0003056248
144	0xbe909a0e	-0.28242534
145	0xbd85b36b	-0.06528362
146	0xbea7cdbb	-0.32774147
147	0x3e481a3d	0.19541259
148	0xbea87d8c	-0.32908285
149	0xbf1c9bd9	-0.61175305
150	0x3dca7916	0.098863766
151	0x3e052466	0.13002166
152	0xbf02c379	-0.5107952
153	0xbddb2024	-0.1069949
154	0x3e2111de	0.15729472
155	0xbd2452bd	-0.040117968
156	0x3d0cd644	0.034384027
157	0x3e62e216	0.22156557
158	0xbe535809	-0.20639051
159	0xbf12bfb4	-0.57323766
160	0xbeed984c	-0.46405256
161	0xbe0b8967	-0.13626634
162	0x3e320466	0.1738449
163	0xbd4daf54	-0.050216034
164	0xbf0c9074	-0.5490792
165	0x3b267a1d	0.0025402375
166	0xbe5c1b22	-0.21494725
167	0xbd66eeb7	-0.05638
168	0xbe340b73	-0.17582493
169	0xbecbed78	-0.39829612
170	0xbf0acc35	-0.54217845
171	0x3ed3cd5d	0.41367617
172	0xbe0f0a1c	-0.139687
173	0x3ca45564	0.020060249
174	0x3e0f2f0d	0.13982792
175	0x3ec95640	0.39323616
176	0xbe0c205c	-0.13684219
177	0xbe4beb22	-0.19913915
178	0x3d65b9a4	0.056085244
179	0x3e8263d2	0.25466782
180	0xbf0bc2ba	-0.54594004
181	0xbe890767	-0.2676346
182	0xbe24a7f0	-0.16079688
183	0x3daca7ad	0.08430419
184	0x3d28acdb	0.041180473
185	0xbee03c43	-0.43795976
186	0x3e3b0a92	0.18265751
187	0xbe3951c9	-0.18097605
188	0xbdea9a1d	-0.11455176
189	0x3d1dc1d8	0.038514942
190	0xbeded6d6	-0.43523282
191	0xbee3f04c	-0.4451927
192	0xbe53a2d0	-0.20667577
193	0x3e0af1cf	0.13568805
194	0xbe3d68cc	-0.18497008
195	0xbddc9a15	-0.10771576
196	0xbe709aab	-0.23496501
197	0xbebd6ab1	-0.36995462
198	0xbe001c56	-0.1251081
199	0x3da68d1e	0.08132385
200	0x3d715a9e	0.05892431
201	0xbea8b6fa	-0.329521
202	0xbf1f263d	-0.6216772
203	0x3e6b22c4	0.22962481
204	0xbefb950d	-0.49137154
205	0x3ea8a472	0.32937962
206	0xbd8bf00a	-0.06832893
207	0x3db4849b	0.08814355
208	0xbe906890	-0.28204775
209	0xbe9ac2f5	-0.30226865
210	0x3ac1b58b	0.0014778835
211	0xbea5da55	-0.32393137
212	0x3e330340	0.17481709
213	0x3df24041	0.11828662
214	0xbe8c428c	-0.2739452
215	0x3c83dba8	0.016095951
216	0xbe96dda9	-0.29465988
217	0x3ea65606	0.32487506
218	0x3f0f7606	0.56039464
219	0x3df0be31	0.11755026
220	0xbc5871f3	-0.013210761
221	0x3e0c37f5	0.13693221
222	0xbf309bca	-0.68987715
223	0x3e073aef	0.13206075
224	0xbe209d3a	-0.15684977
225	0xbdcd4c72	-0.100243464
226	0xbe53c259	-0.20679606
227	0x3e16eea4	0.14739472
228	0xbd9d50e1	-0.07681442
229	0xbe98c1aa	-0.29835254
230	0x3e3241f2	0.17407969
231	0x3ce942fb	0.028474322
232	0xbe4ba3f1	-0.19886757
233	0xbdda5fde	-0.106628165
234	0xbc727da1	-0.01480046
235	0xbe0c26b1	-0.13686635
236	0x3dbc8ba0	0.09206319
237	0xbf0d48cb	-0.551892
238	0xbc7e47f5	-0.015520086
239	0xbf1dec80	-0.61688995
240	0x3e243e55	0.16039403
241	0xbe6d4347	-0.23170196
242	0x3dae8757	0.08521908
243	0x3dcbbc98	0.09948081
244	0x3d10ae45	0.035322446
245	0x3e9ebb1c	0.31002128
246	0xbe230348	-0.1591922
247	0x3d517351	0.051135365
248	0xbc3bf87c	-0.0114728175
249	0xbe83d1de	-0.25746053
250	0xbe1c5424	-0.15266472
251	0x3e9a52d5	0.3014132
252	0x3e8c3446	0.2738363
253	0x3e78ef67	0.24310075
254	0x3e251959	0.1612295
255	0x3d3ece71	0.046583597

layers.2.bias f4 [64]
0	0xbe85bbfd	-0.26119986
1	0xbd290d61	-0.041272525
2	0xbe00d4d4	-0.12581187
3	0x3c976701	0.018481733
4	0xbe6dc746	-0.23220548
5	0xbdfe7ee5	-0.12426547
6	0xbd88261e	-0.06647895
7	0xbe32a1dc	-0.17444557
8	0xbe0b5f74	-0.13610631
9	0xbe43a176	-0.19104561
10	0xbdf62ebf	-0.12020635
11	0xbde63bab	-0.112418495
12	0xbe0f1d5d	-0.13976045
13	0xbcc1f27e	-0.0236752
14	0x3c1779ca	0.009245345
15	0x3e08b889	0.13351645
16	0xbd0232a7	-0.031786587
17	0x3d9c94fa	0.076456025
18	0xbdf86c09	-0.12129981
19	0xbe06124b	-0.13092916
20	0xbded80e4	-0.115968496
21	0xbce13b20	-0.027494013
22	0xbda5841c	-0.080818385
23	0xbdc4fc36	-0.09618418
24	0xbdb269d1	-0.08711589
25	0xbe5143f9	-0.20436086
26	0x3d288df4	0.041151002
27	0xbe65e0d2	-0.22449043
28	0xbc87a463	-0.016557878
29	0xbd85ab48	-0.0652681
30	0x3d463498	0.04839
31	0xbd3a86f5	-0.04553886
32	0xbdf26109	-0.11834914
33	0xbd0e6575	-0.034764726
34	0xbd437f7a	-0.047728993
35	0xbda243e8	-0.07923108
36	0xba8a901a	-0.001057151
37	0x3e2307d4	0.15920955
38	0xbe067b79	-0.13133039
39	0x3e1104b8	0.14161956
40	0xbde7fbc8	-0.1132732
41	0xbe0da63f	-0.13832949
42	0x3d262f7b	0.040572625
43	0x3d27db0e	0.04098039
44	0xbd5b5d66	-0.05355587
45	0xbddcbcee	-0.10778223
46	0x3db617f8	0.088912904
47	0x3dca6841	0.09883166
48	0xbdf1d94e	-0.11809026
49	0xbe092a5e	-0.13395068
50	0x3dc03e29	0.09386856
51	0x3d8cfe13	0.06884398
52	0xbdaba019	-0.083801456
53	0xbe3f8bbf	-0.18705653
54	0xbdcac318	-0.099004924
55	0xbc5a22b5	-0.013313939
56	0x3d6b691a	0.05747328
57	0xbdb731c4	-0.08945039
58	0xbe08887d	-0.13333316
59	0xbe2295ce	-0.15877458
60	0xbe43d569	-0.19124378
61	0xbe2fca0d	-0.1716692
62	0xbe20e657	-0.15712868
63	0xbd24a709	-0.04019836

layers.4.weight f4 [64, 64]
0	0xbce7881f	-0.02826315
1	0x3eda2e43	0.4261342
2	0x3db83f27	0.0899642
3	0xbe6a029a	-0.22852555
4	0x3e84317a	0.25818998
5	0x3e151e50	0.14562345
6	0x3ea1d018	0.31604075
7	0xbeb4f5f8	-0.3534391
8	0xbe186b4f	-0.14884685
9	0x3e7e01a9	0.24805321
10	0x3ab7a46e	0.0014010796
11	0xbe84415d	-0.25831118
12	0xbe8d7e7f	-0.2763557
13	0x3ea3a30e	0.31960338
14	0x3e5b63e4	0.21424824
15	0xbef910fd	-0.48645774
16	0x3e414b8e	0.18876478
17	0x3e283dae	0.16429779
18	0xbf10654d	-0.5640457
19	0xbd97f038	-0.07418865
20	0xbd89bec9	-0.067258425
21	0xbe98ce20	-0.2984476
22	0x3d8cb4b4	0.06870404
23	0xbda43a17	-0.08018892
24	0x3e90ab4a	0.28255683
25	0xbb94549a	-0.004526687
26	0xbeb8d47e	-0.3609962
27	0x3df9fdb7	0.122065954
28	0x3ca2ef35	0.019889453
29	0xbe12b67b	-0.14327423
30	0xbde58845	-0.11207632
31	0x3e8fcfbc	0.28088176
32	0x3b7f2edf	0.003893785
33	0xbe966733	-0.2937561
34	0xbe6488c2	-0.22317794
35	0x3d169d58	0.03677115
36	0x3ea1352b	0.31485876
37	0xbecf9e9f	-0.40550706
38	0x3e76ddd9	0.24108066
39	0x3db17ead	0.086667396
40	0xbde78ef8	-0.11306566
41	0xbde321a0	-0.11090398
42	0x3e9975c7	0.2997267
43	0x3ebb4853	0.36578616
44	0xbeb089f6	-0.34480256
45	0x3d132716	0.035925947
46	0x3eba9ec2	0.36449248
47	0x3ed8fbc1	0.42379573
48	0xbd855452	-0.065102234
49	0x3d80879f	0.06275868
50	0xbb3276a1	-0.0027231353
51	0xbe5c452d	-0.21510763
52	0xbe6bb9d3	-0.23020105
53	0xbdc926bb	-0.098218404
54	0x3dd62dda	0.10457964
55	0xbf304100	-0.6884918
56	0x3da2d749	0.07951219
57	0x3e0fa402	0.14027408
58	0xbd8f2685	-0.06989769
59	0x3dd45cc1	0.10369254
60	0xbed283e8	-0.4111626
61	0xbe7f4a3c	-0.24930662
62	0xbe861d19	-0.26194075
63	0x3e848ca1	0.2588854
64	0x3d23d796	0.04000052
65	0x3c6c13e2	0.014409037
66	0x3d66ffe8	0.056396395
67	0xbcc3b9da	-0.023892332
68	0x3dd41a5c	0.1035659
69	0xbe0536df	-0.13009213
70	0xbe0cbca5	-0.13743837
71	0xbd4053b7	-0.046954837
72	0x3dab7bf7	0.08373254
73	0x3d1867b5	0.037208278
74	0xbde6121c	-0.11233923
75	0xbcf1457e	-0.029452082
76	0xbcb4b828	-0.022060469
77	0xbcbafe28	-0.02282627
78	0xbdd5e37f	-0.10443782
79	0xbde1bdae	-0.11022507
80	0x3cfc2963	0.030781453
81	0xbb881e14	-0.004153976
82	0xbdabd4f9	-0.08390231
83	0xbd49eefb	-0.049300175
84	0xbe079f7e	-0.13244435
85	0xbdea338b	-0.11435612
86	0xbd8cdf52	-0.068785325
87	0xbd0875ec	-0.033315584
88	0xbdad7b88	-0.08470827
89	0xbe0ea0e7	-0.13928567
90	0xbd0f4a21	-0.034982804
91	0xbdee57ad	-0.116378166
92	0x3de78723	0.11305072
93	0x3dab8ddb	0.08376666
94	0x3d21e02e	0.039520435
95	0xbd482b54	-0.048869446
96	0x3cc42290	0.023942262
97	0xbdd737f5	-0.1050872
98	0xbda8c6bb	-0.0824103
99	0xbd9d868f	-0.07691681
100	0xbd0d7982	-0.034539707
101	0xbdaf78b7	-0.085679464
102	0x3bb08c84	0.0053878445
103	0xbb1ce40a	-0.0023939633
104	0xbd999a5d	-0.075001456
105	0xbe0b358d	-0.13594647
106	0xbdac730e	-0.084203824
107	0x3d276b82	0.04087401
108	0xbd46bbdc	-0.048519
109	0x3dc6d334	0.097082525
110	0x3ceda285	0.02900816
111	0x3d793257	0.060839023
112	0x3d053997	0.032525625
113	0xbd6b4f89	-0.057448898
114	0xbd0cad57	-0.034344997
115	0x3c563315	0.013073702
116	0xbe0d06e7	-0.13772164
117	0xbd090a4c	-0.033457085
118	0x3c8f0c53	0.017461931
119	0xbe19ddc4	-0.15026003
120	0xbe5ede0b	-0.2176439
121	0xbd91b359	-0.07114286
122	0xbe08dcd1	-0.13365485
123	0xbcb785e2	-0.022402707
124	0xbcdac0a2	-0.026703183
125	0x3da6eede	0.08151029
126	0x3db1653a	0.086618856
127	0x3dacb0ec	0.08432183
128	0x3e118878	0.14212215
129	0xbe7bac34	-0.24577409
130	0x3e70d815	0.23519929
131	0xbf5742e9	-0.8408647
132	0xbe4ae92e	-0.19815513
133	0xbdc85a86	-0.09782891
134	0xbe24ad31	-0.16081692
135	0xbeec7ba5	-0.46188083
136	0xbf14618f	-0.5796136
137	0x3da7b9a3	0.08189704
138	0xbd70e611	-0.05881316
139	0xbe401b03	-0.18760304
140	0xbe96d41d	-0.29458705
141	0x3e977c48	0.29587007
142	0xbd5c88c2	-0.05384136
143	0xbe3c03cd	-0.18360825
144	0x3d18f46d	0.037342478
145	0x3e33b449	0.17549242
146	0xbde72e94	-0.11288181
147	0x3df3c9ed	0.11903749
148	0x3d9c731b	0.07639142
149	0xbea49383	-0.32143793
150	0xbe636dfc	-0.22209924
151	0x3da43a1a	0.080188945
152	0x3e7586c3	0.23977189
153	0xbeb317ac	-0.34978998
154	0xbee38335	-0.4443604
155	0x3f28b56c	0.6590183
156	0xbe165cf6	-0.146839
157	0xbe830b89	-0.25594738
158	0x3e0a0a1b	0.13480417
159	0x3d211aa0	0.039332032
160	0x3dcbcb0f	0.0995084
161	0xbe8c31d5	-0.2738177
162	0x3db732cf	0.08945238
163	0x3d085224	0.03328146
164	0xbe47d19c	-0.19513553
165	0x3dda289d	0.106522776
166	0xbd87e649	-0.0663572
167	0x3d30edd3	0.043195557
168	0xbdb322ad	-0.08746848
169	0x3d28fb04	0.041255012
170	0xbc0a7718	-0.008451246
171	0x3e48e2c1	0.1961775
172	0x3d9663b1	0.073432334
173	0x3def5402	0.11685945
174	0x3e1bda42	0.15219977
175	0xbc675841	-0.014120162
176	0x3d0cbced	0.03435986
177	0xbe57d1f6	-0.21076187
178	0x3ea1e9b4	0.31623614
179	0xbd088581	-0.033330444
180	0xbe6db19e	-0.23212287
181	0xbddabccc	-0.106805414
182	0x3e187339	0.14887704
183	0xbe7d287b	-0.24722473
184	0xbd458f0d	-0.048232127
185	0x3e94285f	0.2893705
186	0x3dbef280	0.09323597
187	0x3db570e0	0.0885942
188	0xbf43f7a2	-0.7654973
189	0x3eb2bb94	0.34908736
190	0x3e47dc0e	0.19517538
191	0x3da6c572	0.081431285
192	0x3e7ee2ff	0.2489128
193	0xbda93577	-0.08262151
194	0x3ea0697a	0.31330472
195	0xbe5ecc75	-0.21757682
196	0x3d5c537f	0.053790566
197	0x3db804e6	0.08985309
198	0xbca40a0e	-0.020024326
199	0x3e7e20dd	0.24817224
200	0xbe4455c9	-0.1917335
201	0x3e8b2469	0.27176216
202	0xbd7f92d6	-0.062395893
203	0xbceaf0fa	-0.02867936
204	0xbd9a5b8b	-0.07536992
205	0xbe34db17	-0.17661701
206	0x3e3af130	0.18256068
207	0xbe35de49	-0.17760576
208	0x3aaf86b9	0.0013391591
209	0xbe647720	-0.22311068
210	0x3cb58259	0.022156881
211	0x3d3ce144	0.046113268
212	0xbc95da3f	-0.018292544
213	0x3d0832c7	0.03325155
214	0x3ccba284	0.024857767
215	0x3e26b9d0	0.1628182
216	0xbe114011	-0.14184596
217	0x3d06b5fe	0.032888405
218	0xbc75ed7f	-0.015010237
219	0xbe010333	-0.12598877
220	0xbcb42a42	-0.021992806
221	0xbdc40624	-0.09571484
222	0x3d836d88	0.06417376
223	0xbd67850a	-0.05652336
224	0xbdbd4560	-0.09241748
225	0x3d029d4d	0.031888295
226	0x3cd75511	0.02628568
227	0xbe2d754e	-0.1693928
228	0xbda0ec68	-0.07857591
229	0xbe306c45	-0.17228802
230	0x3d714f77	0.058913674
231	0x3d20ac26	0.039226674
232	0x3d4aa167	0.04947033
233	0x3dca25bd	0.09870479
234	0x3da645be	0.08118771
235	0xbe376721	-0.17910434
236	0x3e5a5c1a	0.21324196
237	0x3ddd9d8a	0.10821064
238	0xbe324006	-0.17407236
239	0xbdb84966	-0.08998375
240	0x3d55c197	0.052186575
241	0x3d31473d	0.04328083
242	0xbe06e21f	-0.13172196
243	0x3dfe16f9	0.124067254
244	0xbe6a387e	-0.22873113
245	0xbd341812	-0.043968268
246	0xbd079d1b	-0.03310881
247	0xba77aa2b	-0.0009447659
248	0x3b4313f8	0.002976654
249	0x3d0a0b04	0.03370191
250	0x3d061e3f	0.03274369
251	0x3da86bea	0.08223708
252	0x3ced84dc	0.028994016
253	0xbe000e89	-0.12505545
254	0xbe181c2e	-0.148545
255	0xbe4ac3b3	-0.19801216

layers.4.bias f4 [64]
0	0xbd82dd4e	-0.06389867
1	0xbddee358	-0.10883206
2	0x3e04ef2f	0.12981866
3	0xbc3e6c16	-0.011622449
4	0x3dee7a80	0.11644459
5	0xbdd03507	-0.10166364
6	0x3da84a5f	0.0821731
7	0xbe7b460c	-0.2453844
8	0xbe1d256b	-0.15346305
9	0xbe22e505	-0.15907677
10	0xbe134bae	-0.14384338
11	0xbc364de1	-0.011126966
12	0xbd70580c	-0.058677718
13	0xbdd11111	-0.10208333
14	0x3c736895	0.014856477
15	0x3b1e291c	0.002413339
16	0x3d9d9a11	0.076954015
17	0x3cbb76c2	0.022883777
18	0x3c79324b	0.015209745
19	0xbdc9cd38	-0.098535955
20	0xbd3b5c7f	-0.045742508
21	0xbd97f84a	-0.07420404
22	0xbdee8cff	-0.116479866
23	0x3e2466db	0.16054861
24	0xbd85aecc	-0.065274805
25	0xbe06369d	-0.13106771
26	0xbe551abe	-0.20810983
27	0x3da4edaa	0.08053143
28	0xbe046373	-0.12928562
29	0xbe0b2ea6	-0.13592014
30	0xbe15aab8	-0.14615905
31	0x3e741f47	0.23840056
32	0x3be06b1e	0.006848707
33	0xbe00cb5f	-0.1257758
34	0x3dc0a825	0.09407071
35	0xbe2f1efe	-0.17101666
36	0x3a9d8db8	0.0012020385
37	0x3d9c526c	0.07632908
38	0xbd8b539e	-0.06803058
39	0xbe31b090	-0.1735251
40	0x3d80959a	0.06278534
41	0x3df4cbd2	0.11952938
42	0x3d20e62f	0.03928202
43	0x3e04f64e	0.12984583
44	0xbe0c4184	-0.13696867
45	0xbdb4daff	-0.08830833
46	0x3ce25f21	0.027633252
47	0x3e088817	0.13333164
48	0xbda9b178	-0.082858026
49	0x3c69c9ca	0.014269302
50	0x3dd892ed	0.10574899
51	0xbe1fd72b	-0.15609424
52	0x3dc4fe52	0.0961882
53	0xbdb28fef	-0.087188594
54	0x3dfceff2	0.123504534
55	0xbdd61793	-0.10453715
56	0xbe1e3526	-0.15449962
57	0xbdec2469	-0.11530382
58	0xbe246fcb	-0.1605827
59	0xbde5081b	-0.111831866
60	0x3e2ebb0d	0.17063542
61	0xbd89f7ae	-0.06736694
62	0x3dd5d685	0.10441307
63	0x3d9d150c	0.0767003

layers.6.weight f4 [64, 64]
0	0x3e21c4aa	0.15797678
1	0xbc6dc1b3	-0.0145115135
2	0x3e647266	0.22309265
3	0x3d882cce	0.06649171
4	0xbeb63f9d	-0.35595408
5	0x3decd39b	0.11563798
6	0x3ed2f8d4	0.41205466
7	0x3e1c6887	0.15274249
8	0xbbe52f22	-0.006994144
9	0x3d4d9e99	0.05020008
10	0xbdd59ab0	-0.10429895
11	0x3e7b0833	0.24514847
12	0xbecea315	-0.40358797
13	0xbdd2e989	-0.102984495
14	0x3e22f811	0.15914942
15	0xbeccc197	-0.39991447
16	0x3d71724a	0.058946885
17	0x3ee5b86b	0.44867262
18	0xbf2eb122	-0.68239033
19	0x3dd6e4c8	0.10492855
20	0x3df6b086	0.12045388
21	0xbd6af3fa	-0.05736158
22	0x3d3c2b54	0.04593976
23	0xbe3adf37	-0.18249212
24	0x3d9aa53a	0.07551046
25	0xbe80c048	-0.251467
26	0x3cdc0a62	0.02686042
27	0x3e5f0723	0.21780066
28	0xbca2607b	-0.019821396
29	0xbd69e1f2	-0.057100244
30	0xbbe87976	-0.0070945574
31	0x3e512527	0.20424329
32	0xbe616dac	-0.22014493
33	0xbed6e1a3	-0.41969022
34	0xbe958672	-0.29204136
35	0xbd0a43ee	-0.03375619
36	0xbe545434	-0.20735246
37	0xbe03232b	-0.12806384
38	0xbf0fa9af	-0.5611829
39	0xbeeb0914	-0.45905364
40	0xbf08e504	-0.5347445
41	0x3d088ae1	0.03333557
42	0xbe63584c	-0.22201651
43	0x3e8c606d	0.27417317
44	0x3cabb23e	0.020959016
45	0xbcc49cfb	-0.024000635
46	0x3e852818	0.26007152
47	0x3cf6fb63	0.030149167
48	0x3db4951a	0.08817501
49	0xbee24a15	-0.44197145
50	0x3db6af92	0.08920206
51	0xbeb44eb3	-0.35216293
52	0xbd02294b	-0.03177766
53	0xbd4be333	-0.04977722
54	0xbc82d2ec	-0.015969716
55	0x3ca49a83	0.020093208
56	0xbdd81b71	-0.10552109
57	0x3d8c68b5	0.06855909
58	0xbe077b57	-0.13230644
59	0x3e178989	0.14798559
60	0x3cb78d34	0.022406198
61	0xbdb4a0e4	-0.0881975
62	0x3e840862	0.25787646
63	0x3d5f9474	0.054584935
64	0xbdd7d0bd	-0.105378605
65	0xbc513ab2	-0.012770342
66	0x3d812ed0	0.06307757
67	0xbdfd1dda	-0.12359209
68	0xbe08d36f	-0.13361906
69	0x3d75f6c8	0.060049802
70	0xbd8d5b18	-0.069021404
71	0x3d485085	0.048904914
72	0x3d8dd120	0.06924653
73	0x3db40d7e	0.08791636
74	0x3d2f11ec	0.0427417
75	0xbd933b72	-0.07189073
76	0xbd480089	-0.048828635
77	0x3cf5c1db	0.029999664
78	0xbd4119f5	-0.047143895
79	0xbdde042f	-0.10840642
80	0xbca5baa0	-0.020230591
81	0x3db6eec6	0.08932261
82	0xbda1a7c8	-0.0789333
83	0xbdc735e9	-0.097270794
84	0xbdc626f1	-0.09675396
85	0x3c89410c	0.01675465
86	0x3dfc6eca	0.12325819
87	0xbdd782e8	-0.10523015
88	0x3d84ebda	0.064902976
89	0xbdcf74b2	-0.1012968
90	0x3db0506d	0.0860909
91	0xbd5926a8	-0.05301538
92	0xbde9186c	-0.11381611
93	0x3cca7978	0.024716124
94	0xbdf00ad2	-0.11720814
95	0x3d40a727	0.04703441
96	0xbdc52e76	-0.09628002
97	0xbda6b6f6	-0.08140366
98	0xbde145f4	-0.109996706
99	0x3d906ec9	0.070523806
100	0x3d557cd8	0.052121013
101	0x3ca2c9bd	0.019871587
102	0x3c9cc123	0.019135064
103	0xbd593604	-0.05303003
104	0xbd922080	-0.07135105
105	0x3bda9fd6	0.006671886
106	0xbddaacc4	-0.10677484
107	0xbc3c5b5f	-0.011496394
108	0xbdf2bd63	-0.11852529
109	0xbc4a785c	-0.0123577975
110	0x3d0155e6	0.03157606
111	0xbd6b4d8b	-0.057446998
112	0xbdd83a58	-0.10558003
113	0xbd91e5f8	-0.07123941
114	0xbdbc2209	-0.09186179
115	0x3d42e4b7	0.0475814
116	0xbd9c6dcd	-0.0763813
117	0x3db092d3	0.086217545
118	0x3c42f612	0.011899488
119	0x3d80f308	0.062963545
120	0xbdcf31f4	-0.1011695
121	0xbdb6c590	-0.08924401
122	0xbd8bb0f6	-0.06820862
123	0xbde982b3	-0.11401882
124	0xbdd45cd5	-0.10369269
125	0xbcaaa81e	-0.020832118
126	0xbcc86476	-0.024461966
127	0xbd8e413b	-0.069460355
128	0x3e30ffcc	0.17285079
129	0xbc8996f0	-0.016795605
130	0xbe0b398c	-0.13596171
131	0x3dabba72	0.08385171
132	0xbdc5425e	-0.09631799
133	0xbb354806	-0.0027661338
134	0x3f029468	0.510077
135	0x3e3774d2	0.17915657
136	0x3c97e6b3	0.018542623
137	0xbd350d24	-0.044201985
138	0xbc328760	-0.010896534
139	0xbe2096e6	-0.15682563
140	0xbe33fd33	-0.17577057
141	0x3d0bdf97	0.03414878
142	0x3eed084f	0.462954
143	0xbe5133ec	-0.20429963
144	0x3e3c4f0d	0.1838953
145	0x3ef14f81	0.4713097
146	0xbe33a8d3	-0.1754487
147	0xbd987d43	-0.07445767
148	0xbcab820f	-0.02093604
149	0x3df313c7	0.118690066
150	0x3caa3861	0.020778837
151	0x3cee28ae	0.029072132
152	0xbdb87073	-0.09005823
153	0xbe093aae	-0.13401291
154	0xbd6388d4	-0.05555041
155	0x3e6ba380	0.23011589
156	0x3da4d3b0	0.08048189
157	0xbcf50c01	-0.02991295
158	0x3de8497a	0.113421395
159	0x3e8e0f2e	0.27745956
160	0xbed52280	-0.41627884
161	0x3dd463ee	0.103706226
162	0xbea86260	-0.32887554
163	0x3cc5965a	0.024119545
164	0xbd84834a	-0.06470354
165	0xbe4280b6	-0.18994412
166	0xbe3ddeb3	-0.18541984
167	0xbf1c8df0	-0.6115408
168	0xbeffb115	-0.4993979
169	0xbdb542bb	-0.088506185
170	0x3e881dcd	0.26585236
171	0x3f09b27b	0.53787965
172	0x3daab867	0.08335953
173	0x3d4fa845	0.050697584
174	0x3ec5f081	0.38660052
175	0x3e5efe8a	0.21776786
176	0x3cecbb54	0.028897919
177	0xbe0862da	-0.13318959
178	0x3e75748d	0.23970242
179	0xbdc5aaea	-0.0965174
180	0x3ec51805	0.38494888
181	0xbd123b81	-0.03570128
182	0x3e87d7bb	0.26531777
183	0xbcde7582	-0.027155641
184	0x3ce07d72	0.027403567
185	0x3cb146d2	0.021640215
186	0xbe50596c	-0.20346612
187	0x3cdfb62b	0.027308544
188	0x3e940ad7	0.2891452
189	0x3d409548	0.047017366
190	0x3e945901	0.28974155
191	0x3ea963dc	0.33084
192	0x3f3ce5b4	0.73788
193	0xbd47c1f5	-0.048768956
194	0x3f3256f0	0.69663906
195	0xbcd63855	-0.026149908
196	0x3d0a4b4e	0.033763222
197	0x3d2e1eeb	0.042509954
198	0xbe97b77c	-0.29632175
199	0xbec70471	-0.38870576
200	0x3d713f5e	0.058898322
201	0xbcf26daa	-0.029593308
202	0x3d7675e8	0.060171038
203	0x3d862c0b	0.06551369
204	0xbe5f5553	-0.21809892
205	0x3d4ce998	0.05002746
206	0xbe3f67ea	-0.18691984
207	0xbe56a866	-0.20962676
208	0xbe50c57a	-0.20387831
209	0x3e4e2d9c	0.20134586
210	0xbd83429b	-0.06409188
211	0xbd80fc5f	-0.06298136
212	0x3ef6ba07	0.48188803
213	0x3d32edf4	0.04368396
214	0x3d0a0df9	0.03370473
215	0x3e8c0b0b	0.27352175
216	0xbe0bb22c	-0.13642186
217	0xbe0c7ddb	-0.13719885
218	0x3e743416	0.23847994
219	0xbeac280d	-0.33624306
220	0x3d750bfc	0.059825882
221	0x3dee7f2a	0.11645348
222	0xbd0199c2	-0.031640776
223	0x3eeb4b77	0.45956013
224	0xbd082677	-0.033239808
225	0x3c80d5b5	0.015726903
226	0x3e4c225a	0.19934979
227	0x3d3e2ceb	0.046429556
228	0xbdf9b0dc	-0.121919364
229	0x3e74e62c	0.23915929
230	0x3e40d986	0.18832979
231	0x3e27466e	0.1633546
232	0x3e497a61	0.1967559
233	0xbedc9e7c	-0.43089664
234	0xbeca7ad8	-0.39546847
235	0xbec815f9	-0.39079264
236	0x3df03f2b	0.11730798
237	0xbcaea6bd	-0.021319741
238	0x3e304e05	0.17217262
239	0xbd8548c0	-0.065080166
240	0x3ddb716f	0.10714995
241	0x3edf7bdf	0.43649194
242	0xbe08c773	-0.13357334
243	0x3e863beb	0.2621759
244	0xbd0739a6	-0.033013962
245	0xbd02b94e	-0.031915
246	0xbe894967	-0.26813814
247	0xbdfd68cd	-0.12373505
248	0xbd99c73b	-0.07508703
249	0xbd86de8e	-0.06585418
250	0x3e7bfdfb	0.24608605
251	0x3df6b889	0.12046916
252	0xbdfad8f3	-0.12248411
253	0x3d00e57b	0.03146885
254	0x3df69bd1	0.12041438
255	0x3eb23501	0.34806064

layers.6.bias f4 [64]
0	0x3daa9d18	0.083307445
1	0xbd3640aa	-0.044495262
2	0x3e0ce144	0.13757807
3	0x3e0ddcf5	0.1385382
4	0x3dd037e7	0.101669125
5	0xbd28b16b	-0.041184824
6	0xbe1c439a	-0.15260163
7	0x3e0249d9	0.12723483
8	0x3ddcd628	0.107830346
9	0x3e65e71b	0.22451441
10	0xbdd05a5e	-0.10173486
11	0xbd960c4f	-0.073265664
12	0xbe1729d6	-0.14762053
13	0xbd21b50b	-0.039479297
14	0xbdbfe4f9	-0.09369845
15	0xbd29e989	-0.041482482
16	0x3dd9b623	0.10630443
17	0xbdcd7fa7	-0.100341134
18	0xbd84c5d6	-0.06483047
19	0xbe06a8db	-0.13150351
20	0xbde72e80	-0.11288166
21	0xbd87ef74	-0.06637469
22	0xbdc09f8d	-0.09405432
23	0x3cef5514	0.029215373
24	0x3d4c50b7	0.049881663
25	0xbd9c018b	-0.07617482
26	0xbdad2c87	-0.084557585
27	0x3de4dd65	0.1117504
28	0xbe32508e	-0.17413542
29	0xbdbbe0bf	-0.09173726
30	0x3e05364c	0.13008994
31	0xbdcae152	-0.09906258
32	0xbe12ea61	-0.14347221
33	0x3e01adff	0.1266403
34	0x3e0199b6	0.12656292
35	0x3d09650d	0.033543635
36	0xbd22d445	-0.039753217
37	0x3e36d80c	0.17855853
38	0xbd95ade1	-0.073085554
39	0x3e09a8fa	0.13443366
40	0xbddbba77	-0.10728925
41	0x3ddae85b	0.106888495
42	0xbdd1f27f	-0.102513306
43	0xbdc28336	-0.09497683
44	0x3dec8678	0.115490854
45	0xbdca530c	-0.09879121
46	0xbd2bc440	-0.041935205
47	0x3d7be0d0	0.061493695
48	0x3da2e8b6	0.07954542
49	0x3b7fbef1	0.0039023722
50	0x3de6bd16	0.11266534
51	0xbdaba07e	-0.08380221
52	0xbe2aca70	-0.16678786
53	0xbdbe3621	-0.09287668
54	0xbdc2fdd5	-0.09521071
55	0xbd14fe0c	-0.03637509
56	0xbde24c64	-0.110497266
57	0xbd82b21a	-0.063816264
58	0x3cb41e15	0.021987
59	0xbe1d342c	-0.15351933
60	0x3d849166	0.06473045
61	0x3db956cc	0.09049758
62	0x3d3f9f5c	0.046782836
63	0xbd6c5e9d	-0.057707418

layers.8.weight f4 [64, 64]
0	0xbe2262f0	-0.15858054
1	0x3dc95c00	0.09832001
2	0xbe1b90be	-0.15191934
3	0xbd760580	-0.06006384
4	0xbde8345b	-0.11338111
5	0x3c20c31d	0.009812144
6	0xbc8ff4a3	-0.017572707
7	0xbccafc71	-0.024778577
8	0xbd89a239	-0.06720395
9	0xbd823712	-0.0635816
10	0x3d8158db	0.06315776
11	0x3d5eb594	0.054372385
12	0x3de3b5d1	0.11118663
13	0xbdb15bc0	-0.08660078
14	0xbd89178d	-0.06693945
15	0xbc441083	-0.011966827
16	0x3d2cae41	0.04215837
17	0xbcf8ef50	-0.03038755
18	0x3c867835	0.016414741
19	0xbdad5823	-0.08464076
20	0x3db01580	0.08597851
21	0xbd99f3b4	-0.07517186
22	0xbcbce873	-0.02306006
23	0xbe095ef3	-0.13415127
24	0xbd4078d4	-0.04699023
25	0xbb9d0918	-0.004792344
26	0xbd3aa410	-0.04556662
27	0x3cdd4e95	0.02701501
28	0x3d0b69fa	0.034036614
29	0xbe0276ea	-0.12740675
30	0xbd6a9784	-0.057273403
31	0x3dacb49a	0.084328845
32	0x3da1921b	0.078891955
33	0xbdad6ab9	-0.08467621
34	0xbe1e75cb	-0.15474622
35	0xbc401b2e	-0.01172523
36	0x3c3e6e08	0.011622913
37	0xbdeb5112	-0.11490072
38	0xbd86a556	-0.06574504
39	0x3d67ebf1	0.056621496
40	0xbd126196	-0.035737596
41	0x3d279ec9	0.040922914
42	0x3d49e322	0.049288876
43	0x3d967f7d	0.07348535
44	0xbdfde42c	-0.12397036
45	0x3d237a01	0.039911274
46	0x3abc721f	0.0014377272
47	0xbc6cbcf8	-0.014449351
48	0xbd9e8570	-0.07740295
49	0xbd45c47e	-0.048283093
50	0xbe29bb3d	-0.16575332
51	0xbdbb40b5	-0.09143201
52	0xbd9afee2	-0.07568146
53	0x3dd1c812	0.102432385
54	0x3d2549f8	0.040353745
55	0x3d94f441	0.0727315
56	0xbc731f90	-0.014839068
57	0xbd0130fc	-0.031540856
58	0x3d681931	0.05666465
59	0xbca01d18	-0.019545123
60	0xbde4a2eb	-0.11163887
61	0xbca39a48	-0.019971028
62	0x3db091af	0.08621537
63	0xbdbfb8a5	-0.0936139
64	0x3e3f44b3	0.1867855
65	0x3bce2453	0.0062909513
66	0x3dddae22	0.10824229
67	0xbe5d0bb7	-0.215865
68	0xbd638232	-0.055544086
69	0x3dc3f4ad	0.095681526
70	0x3c8d30eb	0.01723524
71	0xbe53b2bc	-0.2067365
72	0xbebf2297	-0.37331077
73	0xbd1e4f5a	-0.038649894
74	0x3d5f3999	0.05449829
75	0xbe72cfa8	-0.23712027
76	0xbc5e3ae1	-0.0135638425
77	0xbf02085c	-0.50794005
78	0x3df3e939	0.11909718
79	0xbe0e4257	-0.13892494
80	0x3d3dacd8	0.046307415
81	0xbdbd2e37	-0.092373304
82	0x3c00b69d	0.007856038
83	0x3dc1cd97	0.09463041
84	0x3da11bc4	0.07866624
85	0x3cad9dc0	0.021193385
86	0xbe1537be	-0.14572045
87	0xbe79a304	-0.24378592
88	0x3eb48a82	0.35261923
89	0x3c5a9122	0.013340266
90	0x3d4f9896	0.050682627
91	0xbdb7b256	-0.08969562
92	0x3c9efc0a	0.019407291
93	0x3df673af	0.12033784
94	0x3ea40a35	0.32039037
95	0xbcae7d0c	-0.021299861
96	0xba06d92f	-0.0005144057
97	0x3d385cb5	0.045010287
98	0xbe3e4b87	-0.18583499
99	0xbeb8b608	-0.3607638
100	0x3e995ff1	0.2995601
101	0x3ec7b234	0.39003146
102	0xbd62d920	-0.055382848
103	0x3efd5d53	0.49485263
104	0xbde2b730	-0.110700965
105	0xbc302203	-0.0107502965
106	0x3d1358f2	0.035973497
107	0xbdb2180d	-0.086959936
108	0x3ccd15bb	0.025034776
109	0xbd38a8d4	-0.045082882
110	0xbdc1cd2a	-0.0946296
111	0x3e2ad9d6	0.1668466
112	0xbe1ce6c9	-0.15322413
113	0xbe1ff86f	-0.15622114
114	0x3e554bb3	0.20829658
115	0xbd98a6d5	-0.07453696
116	0xbcbb0b3e	-0.02283251
117	0xbdf43c06	-0.11925511
118	0xbe094632	-0.13405684
119	0x3ecf0aa4	0.40437806
120	0x3df0dfaa	0.117614105
121	0xbdf99ab5	-0.12187711
122	0xbe9aba1b	-0.30220112
123	0xbdd03a1a	-0.10167332
124	0x3d0deebb	0.0346515
125	0x3e25a693	0.16176824
126	0xbe268cb0	-0.16264606
127	0xbe7326ed	-0.23745318
128	0xbd1cb160	-0.038255095
129	0xbdf8128c	-0.121129125
130	0xbdb63608	-0.088970244
131	0x3d1fe38c	0.039035365
132	0xbda63298	-0.08115119
133	0xbc5a7970	-0.013334617
134	0x3da66b02	0.08125879
135	0x3dd2a3bc	0.10285136
136	0xbd438dd8	-0.047742695
137	0xbdf5595c	-0.119799346
138	0x3b8ce620	0.004299894
139	0xbc787610	-0.015164867
140	0x3da04b22	0.078268304
141	0xbdc2384a	-0.094833925
142	0x3dd635e8	0.104595006
143	0x3d8671b4	0.06564656
144	0xbb8217a0	-0.0039701015
145	0xbd9afcdc	-0.0756776
146	0xbd98bf60	-0.07458377
147	0xbd93d3a2	-0.072181
148	0xbdb07396	-0.08615796
149	0x3d98f070	0.07467735
150	0xbdaa685e	-0.08320688
151	0xbd929976	-0.071581766
152	0x3d421780	0.047385693
153	0xbd7b38dc	-0.061333522
154	0xbd44b120	-0.048020482
155	0xbda7f782	-0.08201505
156	0xbdf725f0	-0.12067783
157	0xbdd37444	-0.1032491
158	0x3d2ba364	0.04190387
159	0x3d8329a6	0.06404428
160	0xbde02c02	-0.10945894
161	0xbd5c6bd4	-0.05381377
162	0xbc2fbf00	-0.01072669
163	0xbd9a2ccc	-0.075280756
164	0x3d8bcb6c	0.06825909
165	0x3d9bffa0	0.07617116
166	0x3d96bf22	0.073606744
167	0xbc812ac0	-0.015767455
168	0x3da5caaa	0.08095296
169	0xbcefe578	-0.029284224
170	0xbdfffdf8	-0.124996126
171	0x3d3f4a7c	0.046701893
172	0x3d8a6810	0.067581296
173	0xbdcf29b8	-0.10115379
174	0x3d4af49c	0.049549684
175	0xbdb8c3c8	-0.09021717
176	0xbdb10bee	-0.086448535
177	0x3df3a24e	0.118961915
178	0xbd1b8fec	-0.03797905
179	0x3c8562a8	0.016282395
180	0x3db3e406	0.087837264
181	0x3ca7f370	0.020501822
182	0xbde537be	-0.111922726
183	0x3c21b750	0.009870365
184	0x3dcdd17e	0.10049723
185	0xbc6de340	-0.014519513
186	0xbdc90c28	-0.09816772
187	0x3d078454	0.033085182
188	0xbd9eebc4	-0.077598125
189	0xbb195e00	-0.0023401976
190	0xbd8a058e	-0.06739341
191	0x3ded3a4a	0.115833834
192	0xbe9e5ad3	-0.30928668
193	0x3c6d603a	0.014488274
194	0x3e6695c6	0.22518072
195	0xbf55eb42	-0.835621
196	0x3e9f0385	0.31057373
197	0x3b58e29b	0.0033094052
198	0x3d03a55f	0.032140132
199	0xbf4f70b3	-0.8103134
200	0xbd887a9c	-0.06664011
201	0xbf8e4667	-1.1115235
202	0xbe1b4306	-0.15162286
203	0x3f0b1120	0.54323006
204	0xbd736db5	-0.059430797
205	0xbe5cdffc	-0.21569818
206	0x3c06f396	0.008236786
207	0x3edd4e46	0.4322378
208	0x3e2039fb	0.15647118
209	0xbde3e744	-0.11128095
210	0xbd80b456	-0.06284396
211	0xbdffcac2	-0.12489845
212	0x3d4b4b08	0.049632102
213	0xbed9fd29	-0.42575958
214	0x3d292b71	0.041301195
215	0xbf566852	-0.8375293
216	0xbf006866	-0.501593
217	0x3e81ccb1	0.2535148
218	0x3d7b32e5	0.061327834
219	0xbf383873	-0.71961135
220	0xbe277867	-0.16354524
221	0xbd068327	-0.03283992
222	0x3d5476b2	0.05187101
223	0x3da7f5ce	0.082011804
224	0x3c7757ff	0.0150966635
225	0x3eac4217	0.33644173
226	0xbf186616	-0.5953077
227	0xbef3da6d	-0.47627583
228	0x3ddb5e20	0.10711312
229	0xbf7f1b03	-0.9965059
230	0x3c0d9a48	0.008642741
231	0x3da85d52	0.082209244
232	0x3d3c0699	0.04590473
233	0x3e4ac6b0	0.19802356
234	0x3ca5f2ce	0.02025738
235	0xbd711363	-0.05885638
236	0x3e82fc26	0.25583
237	0xbde9dfc6	-0.114196345
238	0x3b9e58af	0.0048323493
239	0x3e87a418	0.2649238
240	0xbea1f713	-0.31633815
241	0xbd5dc81a	-0.05414591
242	0x3e930e59	0.28721884
243	0xbd22fd93	-0.03979261
244	0xbca87af0	-0.020566434
245	0x3da46412	0.080268994
246	0x3d2a5268	0.041582495
247	0xbdaeae0b	-0.0852929
248	0xbc9c71a0	-0.01909715
249	0x3de89a73	0.11357584
250	0xbf7acf7c	-0.97972846
251	0xbb841900	-0.0040313005
252	0xbec409ca	-0.38288718
253	0xbdc1c948	-0.094622195
254	0xbf664a8a	-0.8995749
255	0xbf7f0cf4	-0.9962914

layers.8.bias f4 [64]
0	0xbda060f2	-0.07830991
1	0x3d29a55a	0.041417457
2	0xbd9b242a	-0.07575257
3	0x3e081269	0.13288273
4	0x3e47aed7	0.1950029
5	0xbd722a8d	-0.05912261
6	0xbdc4a2e5	-0.09601382
7	0xbe3138f3	-0.1730688
8	0x3e8b2e8e	0.27183956
9	0x3dd3a5b5	0.103343405
10	0xbdb1540e	-0.0865861
11	0xbdd247b5	-0.10267583
12	0x3b6ad827	0.0035834403
13	0xbe45c60b	-0.19313829
14	0xbe0cfbb8	-0.13767898
15	0xbd38b4ab	-0.045094173
16	0xbc8ab057	-0.016929789
17	0xbdce108e	-0.10061751
18	0x3e312cd0	0.17302251
19	0x3cd40f5d	0.025886232
20	0xbd5c9116	-0.053849302
21	0xbcae5af8	-0.021283612
22	0xbb89b654	-0.0042026434
23	0x3ce414ae	0.027841892
24	0xbd8b9e7b	-0.06817337
25	0xbc667aae	-0.014067335
26	0xbc2be24f	-0.010490968
27	0x3d660aaf	0.056162532
28	0xbda202c4	-0.07910684
29	0x3e6cabff	0.23112486
30	0xbdda1bc5	-0.10649828
31	0x3d1d4c8a	0.03840307
32	0x3e033d77	0.12816416
33	0x3ce091c6	0.02741326
34	0xbd240136	-0.040040217
35	0x3d16dfff	0.036834713
36	0xbdcdbd86	-0.10045914
37	0xbe1c8e0a	-0.15288559
38	0x3e292339	0.16517343
39	0xbe0b2bcd	-0.13590927
40	0xbd9d60d7	-0.07684486
41	0x3d43dec6	0.047819875
42	0xbdda6134	-0.10663071
43	0x3a69c8da	0.0008918174
44	0xbe154170	-0.14575744
45	0xbccd7103	-0.025078302
46	0xbdec6907	-0.1154347
47	0xbdb44896	-0.08802907
48	0x3d7d9d2b	0.061917465
49	0xbdcacd77	-0.099024706
50	0x3cc4f027	0.024040295
51	0xbccc6f00	-0.024955273
52	0x3e7166ed	0.2357442
53	0x3dbf61e4	0.09344843
54	0xbe011b59	-0.12608089
55	0x3e239e0b	0.15978257
56	0xbe1978bd	-0.14987464
57	0xbde606e8	-0.11231786
58	0xbdd26c09	-0.10274512
59	0xbd9b3240	-0.07577944
60	0xbe00cc51	-0.1257794
61	0xbdabcc38	-0.08388561
62	0xbd2f8064	-0.042847052
63	0xbdd990d4	-0.10623327

layers.10.weight f4 [64, 64]
0	0xbcc4bb01	-0.024014952
1	0xbdeef0e9	-0.11667044
2	0x3d96eafa	0.07369037
3	0x3f13333b	0.57500046
4	0xbe7f3c10	-0.24925256
5	0xbdac7525	-0.08420781
6	0xbda05887	-0.07829385
7	0xbdae370a	-0.085065916
8	0xbe80c9d3	-0.2515398
9	0x3e575fc0	0.2103262
10	0xbd5ba0d5	-0.05362018
11	0xbda35e95	-0.079770245
12	0x3e1fe205	0.15613563
13	0xbd65102f	-0.055923637
14	0xbd8e1680	-0.06937885
15	0xbe618a20	-0.22025347
16	0xbd1c6a33	-0.038187217
17	0x3d941ffa	0.072326615
18	0xbe9324d9	-0.2873905
19	0xbeb800b1	-0.35938028
20	0xbd5d7c10	-0.054073393
21	0xbddc122e	-0.10745655
22	0x3dbad91e	0.09123443
23	0x3ea2a7c1	0.3176861
24	0xbc3b7c4d	-0.01144321
25	0x3d902a44	0.070393115
26	0x3dbd0ce6	0.09230976
27	0x3ec1ffd7	0.37890503
28	0x3dcb502d	0.09927402
29	0xbcb21829	-0.021740036
30	0x3d023b3f	0.031794783
31	0x3eba903f	0.36438176
32	0x3edca882	0.4309731
33	0xbe8f757f	-0.2801933
34	0x3d0b4503	0.03400136
35	0x3e748221	0.23877765
36	0x3c77a6f8	0.015115492
37	0x3d457e2a	0.048216023
38	0xbcc8bf79	-0.024505364
39	0xbc390e3f	-0.0112949
40	0x3dcb8550	0.09937537
41	0x3e996d8d	0.29966393
42	0x3daa1366	0.08304481
43	0xbc3b8402	-0.011445047
44	0x3d912b7f	0.07088374
45	0x3d84ed90	0.06490624
46	0x3e056b20	0.13029146
47	0x3de0c840	0.10975695
48	0xbe87e3f6	-0.26541108
49	0xbc9759a0	-0.018475354
50	0xbc59b393	-0.013287443
51	0xbd20f628	-0.039297253
52	0xbeb1b616	-0.34709233
53	0xbecfae30	-0.40562582
54	0xbdd79191	-0.105258115
55	0xbd7bec20	-0.061504483
56	0x3db669b3	0.08906879
57	0x3d56f1cc	0.05247669
58	0xbdb3a568	-0.08771783
59	0x3c86f30f	0.016473321
60	0x3cd1d701	0.025615217
61	0x3ce534c7	0.027979268
62	0xbde5bb06	-0.112173125
63	0xbdc2e14f	-0.095156305
64	0xbd355f55	-0.04428037
65	0xbc7f0409	-0.015564927
66	0x3b991420	0.0046715885
67	0x3f72f7da	0.9490944
68	0xbd01b68a	-0.031668223
69	0x3d906129	0.07049782
70	0xbce9d45f	-0.02854365
71	0xbcd79401	-0.026315691
72	0xbda14dec	-0.078761905
73	0xbd66de5a	-0.056364395
74	0xbdfc4be3	-0.12319162
75	0x3db811f2	0.08987798
76	0x3e02ec9b	0.1278557
77	0x3dbd34c5	0.092385806
78	0x3d23a970	0.03995651
79	0xbd76d3b7	-0.0602605
80	0x3d643549	0.05571488
81	0xbde1a74e	-0.11018239
82	0xbe424bd9	-0.18974246
83	0xbdfbe6dc	-0.12299892
84	0xbd913011	-0.07089246
85	0xbd6ef4e0	-0.058339
86	0x3d42dcd4	0.04757388
87	0xbd7478b0	-0.05968541
88	0x3d0c633d	0.03427433
89	0xbd864596	-0.06556241
90	0xbc520556	-0.012818655
91	0x3e2c196d	0.16806574
92	0x3c1ba1d1	0.009499029
93	0xbec86fe6	-0.39147872
94	0xbe12fe43	-0.14354806
95	0x3e215e84	0.15758711
96	0x3e382ab3	0.17985038
97	0x3d0bd8cf	0.03414231
98	0x3e10a8d7	0.14126907
99	0x3db353d4	0.08756223
100	0x3d8d0809	0.06886298
101	0xbac76704	-0.0015213196
102	0x3eb4c79d	0.35308543
103	0xbd1b07fe	-0.03784942
104	0x3d48855d	0.04895531
105	0x3da23c67	0.07921677
106	0xbdbbb3db	-0.09165164
107	0x3dea2c93	0.11434283
108	0x3db80761	0.089857824
109	0xbd96ccc6	-0.07363276
110	0xbced7fff	-0.028991697
111	0xbca90caa	-0.020635922
112	0x3d68e031	0.05685443
113	0xbd00cc29	-0.031444702
114	0xbe87c1d8	-0.2651508
115	0xbdb782a0	-0.089604616
116	0xbbd68cf4	-0.0065475646
117	0xbcd30937	-0.02576123
118	0x3dc0f595	0.09421841
119	0xbecfd8c7	-0.40595075
120	0x3da4de33	0.08050194
121	0x3d6f722a	0.058458485
122	0xbd606ecf	-0.054793175
123	0xbe048aea	-0.12943617
124	0x3cefb9ef	0.029263465
125	0x3da19f0d	0.07891665
126	0xbcbbdc20	-0.022932112
127	0xbc8893ea	-0.016672093
128	0xbd465daa	-0.04842917
129	0x3e35a4ad	0.177386
130	0xbca01aa0	-0.019543946
131	0xbf0f26ef	-0.5591878
132	0x3e5922f6	0.21204743
133	0x3dd4a57e	0.10383128
134	0xbd917186	-0.07101731
135	0xbda9fc99	-0.08300132
136	0x3ddea283	0.108708404
137	0x3d5505d1	0.0520075
138	0xbce5568d	-0.027995372
139	0xbd8cbabe	-0.06871556
140	0xbe6e35e8	-0.23262751
141	0x3da8832c	0.08228144
142	0xbc0e9424	-0.008702312
143	0x3e475d78	0.19469249
144	0x3d1b60df	0.03793418
145	0xbd651ec4	-0.055937544
146	0x3e91da13	0.2848669
147	0x3e88c476	0.26712388
148	0xbd85c486	-0.065316245
149	0x3dc74d66	0.097315595
150	0xbd3a9316	-0.04555043
151	0xbe3533d2	-0.17695549
152	0x3cb7ae8a	0.022422094
153	0xbde1ff20	-0.11034989
154	0x3d65242f	0.05594271
155	0xbe94f07c	-0.29089725
156	0xbc3c7a5e	-0.011503784
157	0x3d495e44	0.049162164
158	0xbdc408ef	-0.095720164
159	0xbe869d88	-0.26292062
160	0xbed7a5c2	-0.4211865
161	0x3ec7a18a	0.38990432
162	0x3d35565b	0.044271808
163	0xbed13fe6	-0.40869063
164	0x3d6a2841	0.057167295
165	0xbddfdf12	-0.10931219
166	0x3da76723	0.08173969
167	0xbd731622	-0.05934728
168	0x3d92eb98	0.07173842
169	0xbe8c7bdb	-0.27438244
170	0x3db19308	0.08670622
171	0xbdfcb263	-0.12338712
172	0x3e1019b6	0.14072308
173	0x3b39f917	0.002837723
174	0xbd3af95c	-0.045647964
175	0x3d88b706	0.06675534
176	0x3e56473c	0.20925611
177	0x3d460a7a	0.048349835
178	0xbbb0955c	-0.005388899
179	0xbda6c86a	-0.08143695
180	0x3e77ffea	0.24218717
181	0x3ec6f0ae	0.388555
182	0x3db71653	0.08939805
183	0x3ead1dbd	0.3381175
184	0xbdbb8446	-0.091560885
185	0xbca52cb3	-0.020162916
186	0xbdfcbe99	-0.12341041
187	0x3d50579f	0.050864812
188	0xbe07a212	-0.13245419
189	0x3d9cf31b	0.07663556
190	0xbd770d04	-0.060315147
191	0xbd3d0fd3	-0.04615767
192	0xbe08a442	-0.1334391
193	0xbe907ced	-0.2822031
194	0xbd91d734	-0.07121125
195	0xbf485f99	-0.7827087
196	0xbea2b885	-0.31781402
197	0xbdf121da	-0.11774035
198	0xbd76a103	-0.060212146
199	0xbc8dde7c	-0.017318003
200	0xbeb8732e	-0.36025375
201	0xbdc90255	-0.09814898
202	0xbdc7402d	-0.097290374
203	0xbdc623b4	-0.096747786
204	0xbc1ab597	-0.009442708
205	0xbd8ebc9d	-0.06969569
206	0xbd86a011	-0.06573499
207	0x3dd182f3	0.10230055
208	0xbdc48f9d	-0.095977046
209	0xbd58c7fc	-0.052925095
210	0xbe125aa0	-0.14292383
211	0xbd345045	-0.044021863
212	0xbdcead59	-0.10091657
213	0xbd637510	-0.05553156
214	0x3c983353	0.01857916
215	0x3cfd37f7	0.030910475
216	0xbd6f5057	-0.058426227
217	0x3cf8b1a3	0.030358141
218	0xbd54393f	-0.051812407
219	0x3d2b165b	0.041769367
220	0xbd0f0d4c	-0.03492479
221	0xbbb9dc3c	-0.005672006
222	0xbdc07f5c	-0.09399292
223	0xbdd6c97f	-0.10487651
224	0x3d9a4871	0.07533348
225	0xbcc4b8f2	-0.02401397
226	0xbc474613	-0.012162703
227	0xbe03e7c6	-0.12881383
228	0xbd6624ca	-0.05618743
229	0xbdcf89df	-0.10133719
230	0xbeb8331e	-0.359765
231	0xbdddfe94	-0.108395725
232	0x3d012681	0.03153086
233	0xbd1d2088	-0.038361102
234	0x3c456d65	0.0120500075
235	0xbcbe1571	-0.023203583
236	0xbdfd0cb8	-0.123559415
237	0xbda03a2e	-0.07823597
238	0x3dec53ca	0.11539419
239	0x3db3e202	0.08783342
240	0xbd0efb75	-0.034907777
241	0xbdd21105	-0.102571525
242	0xbed3e895	-0.41388384
243	0x3d359fa4	0.0443417
244	0xbe6e03f9	-0.23243703
245	0xbd8cb62f	-0.06870686
246	0xbca3a62b	-0.019976696
247	0xbd370a7c	-0.044687733
248	0xbb8c690e	-0.0042849844
249	0xbd496599	-0.049169157
250	0xbe009f9e	-0.12560889
251	0x3de28229	0.11059982
252	0x3bed6565	0.007244753
253	0x3cdef35f	0.027215658
254	0x3db2f5c6	0.08738284
255	0x3df0368b	0.11729153
